g1_policy_jit.pt (torch, 874950 bytes, 8 tensors)

weight f4 [512, 93]
0	0xbd0c4b34	-0.034251407
1	0xbd149483	-0.036274444
2	0x3ce2af5b	0.027671507
3	0x3d770fc1	0.06031776
4	0x3d873b44	0.06603101
5	0x3c291ca0	0.010321766
6	0xbbb3b746	-0.0054844944
7	0xbe312e09	-0.17302717
8	0x3e85e158	0.26148486
9	0xbe38164f	-0.1797726
10	0x3de6f6c8	0.112775385
11	0xbce8c3a0	-0.028413594
12	0x3e035f73	0.1282938
13	0x3e1659c0	0.14682674
14	0xbd8750a2	-0.06607176
15	0xb99da3e2	-0.00030067476
16	0x3e04e77a	0.12978926
17	0xbbee8e57	-0.007280152
18	0xbd588dc5	-0.052869577
19	0xbd42df92	-0.047576495
20	0xbd7b8660	-0.061407447
21	0x3db61228	0.08890182
22	0x3e15d943	0.1463366
23	0x3ed90632	0.4238754
24	0x3d428867	0.047493365
25	0x3e2c72d8	0.16840684
26	0x3e9e17f1	0.3087764
27	0x3e5b5758	0.21420038
28	0xbe432df0	-0.19060493
29	0xbc8da924	-0.017292567
30	0xbc826ed2	-0.015921984
31	0xbde2610d	-0.11053667
32	0x3e818a2e	0.25300735
33	0xbeabd935	-0.33564153
34	0xbe30082d	-0.17190619
35	0x3d861140	0.06546259
36	0xbc6e542b	-0.014546434
37	0x3e0c78ef	0.13718008
38	0x3ca23e6a	0.019805152
39	0x3e28ad94	0.16472465
40	0xbb603da4	-0.0034216428
41	0xb96bfa23	-0.0002250453
42	0xbd827757	-0.063704185
43	0x3d1e918c	0.038713023
44	0xbd8cd4d5	-0.06876532
45	0x3cba46a8	0.02273877
46	0x3cad9e60	0.021193683
47	0xbd5620d1	-0.05227739
48	0x3c052e7c	0.0081287585
49	0x3cedb705	0.029017935
50	0x3cafe46a	0.021471221
51	0xbd23bfc0	-0.03997779
52	0x3dc506d4	0.09620443
53	0xbbb9516e	-0.005655459
54	0x3dbbf819	0.0917818
55	0x3d0a70c6	0.033798955
56	0x3cbcb63a	0.023036111
57	0x3d21fa21	0.039545182
58	0xbd95f1d0	-0.07321513
59	0xbd971928	-0.07377845
60	0xbcdfd721	-0.027324261
61	0xbd9126eb	-0.07087501
62	0xbd7000a6	-0.05859437
63	0xbbb3b48a	-0.0054841684
64	0xbd1fdb86	-0.039027713
65	0x3d3c6ddd	0.04600321
66	0xbd4da5b3	-0.05020685
67	0xbd05290e	-0.032509856
68	0x3d0d9ef4	0.034575418
69	0x3d9898c1	0.074510105
70	0xbc42eccc	-0.011897277
71	0xbdd32d01	-0.10311318
72	0x3c10fe06	0.008849626
73	0x3e0a3fca	0.13500896
74	0xbd842953	-0.064531945
75	0x3d8d99e4	0.06914118
76	0xbc62489c	-0.013811257
77	0x3d690b19	0.05689535
78	0x3ce4d1ad	0.027932012
79	0xbd2b40bb	-0.04180978
80	0x3d6a0b8a	0.05713991
81	0xbd6048c9	-0.054756913
82	0x3cf95c81	0.030439617
83	0xbd42975f	-0.04750764
84	0xbde4a805	-0.1116486
85	0x3d27c931	0.040963355
86	0x3dc8ba7e	0.098011956
87	0x3a121ff5	0.000557422
88	0x3dbd0152	0.092287675
89	0xbe1293a3	-0.14314131
90	0x3c6626a6	0.0140473
91	0xbc06f2d5	-0.008236607
92	0x3ca57d77	0.020201428
93	0xb9571e33	-0.00020515248
94	0xbd9581a7	-0.0730012
95	0xbdf12269	-0.11774141
96	0xbce81598	-0.02833061
97	0xbe0af716	-0.13570818
98	0xbdc1f673	-0.094708346
99	0x3e3fa8c8	0.18716729
100	0xbe50641e	-0.20350692
101	0x3d64534b	0.055743497
102	0xbdb27771	-0.08714188
103	0xbe310714	-0.17287856
104	0xbdc15b0c	-0.09441194
105	0xbda651ca	-0.08121069
106	0x3e3a3da6	0.1818758
107	0x3d6b4d5b	0.05744682
108	0xbd2fdffb	-0.042938214
109	0x3db544f7	0.088510446
110	0x3e210691	0.15725161
111	0x3dfa3d17	0.12218683
112	0x3c8d65ac	0.017260395
113	0xbe226b86	-0.1586133
114	0x3d359616	0.044332586
115	0xbe866083	-0.26245508
116	0x3cd62564	0.026140876
117	0xbe55c1b1	-0.20874669
118	0xbe40aff9	-0.18817128
119	0xbe3e114c	-0.18561286
120	0xbd327488	-0.043568164
121	0xbdeb6e1b	-0.1149561
122	0x3e37177f	0.17880057
123	0xbe27fe93	-0.16405706
124	0xbe26b723	-0.16280799
125	0x3c9dba70	0.01925394
126	0xbe0047ed	-0.12527438
127	0xbdbe32a5	-0.092870034
128	0x3cc82d67	0.024435712
129	0x3cc5154d	0.024058009
130	0x3e551033	0.20806961
131	0xbc9dca8c	-0.019261621
132	0xbddc642b	-0.10761293
133	0x3cad789c	0.021175675
134	0x3da10c67	0.07863694
135	0x3cfb269a	0.030658055
136	0x3df244b2	0.11829509
137	0x3db9c113	0.09070029
138	0x3da25a93	0.07927432
139	0xbde9a7e0	-0.11408973
140	0xbd963984	-0.07335189
141	0xbd2a9db6	-0.04165431
142	0x3c5913dd	0.013249365
143	0xbd080e74	-0.03321691
144	0xbdfb8dcb	-0.12282904
145	0xbd79d0e9	-0.060990248
146	0xbdf8b50a	-0.121439055
147	0x3caf6a0d	0.021412874
148	0xbd25efbf	-0.040511843
149	0x39b45c04	0.00034400832
150	0x3d2a801b	0.041626077
151	0x3d4d76c3	0.050162088
152	0xbd8c7261	-0.068577535
153	0xbc6463e9	-0.013939836
154	0xbd8e92c5	-0.06961588
155	0x3d264b50	0.040599167
156	0x3d421ddb	0.047391754
157	0xbd66716c	-0.05626051
158	0x3d052280	0.032503605
159	0xbdb6a5b2	-0.089183226
160	0x3cd70de8	0.026251748
161	0xbd7e715c	-0.062119827
162	0xbd526b77	-0.051372018
163	0x3d01b61a	0.031667806
164	0x3d02b409	0.031909976
165	0xbd32c40b	-0.043643992
166	0xbe052d16	-0.1300548
167	0x3d8d39ba	0.06895776
168	0xbd001d82	-0.03127814
169	0xbda64710	-0.08119023
170	0xbc425e39	-0.011863285
171	0xbd41d6d4	-0.047324017
172	0xbd0711c7	-0.03297594
173	0xbc3e1622	-0.011601957
174	0xbd5f2ee6	-0.054488085
175	0x3d59babd	0.053156603
176	0xbe14d36e	-0.14533779
177	0xbd1fec33	-0.039043617
178	0xbbdb97f3	-0.0067014634
179	0xbdf67dcf	-0.12035715
180	0x3d85f1ce	0.06540261
181	0x3bad03ff	0.0052800174
182	0xbd5a9842	-0.05336786
183	0x3d7b6aa0	0.061380982
184	0x3c81a386	0.015825044
185	0xbdbbecb4	-0.09176007
186	0xbe4bf75d	-0.1991858
187	0x3b0a81b2	0.0021134433
188	0xbde30262	-0.11084439
189	0x3e54ae67	0.20769654
190	0xbdf1cc45	-0.118065394
191	0xbd56b30e	-0.052416854
192	0x3c24dce5	0.010062431
193	0xbdb67c6a	-0.08910449
194	0x3d854eba	0.065091565
195	0xbd0fde38	-0.035124034
196	0xbe096077	-0.13415705
197	0x3c7c4042	0.01539618
198	0x3d928a1a	0.07155247
199	0xbd68a219	-0.056795213
200	0xbddb4a4d	-0.10707531
201	0x3e3804dd	0.17970605
202	0xbd2744e4	-0.040837184
203	0x3d0f2a4c	0.034952447
204	0x3e09a20d	0.13440724
205	0x3be1f1f5	0.0068952986
206	0xbd320c48	-0.043468744
207	0xbe54030b	-0.20704286
208	0x3df67d26	0.12035589
209	0x3d13a149	0.036042485
210	0xbd639764	-0.0555643
211	0x3d821ef3	0.06353559
212	0x3efff6d7	0.4999301
213	0x3e883613	0.26603755
214	0x3e076bdb	0.13224737
215	0x3d7a3bfe	0.06109237
216	0x3e399b0e	0.18125555
217	0x3e08e3ca	0.13368145
218	0xbd97fdd4	-0.07421461
219	0x3d748638	0.059698313
220	0x39e15252	0.00042976678
221	0xbdeb0f67	-0.11477547
222	0x3d498c87	0.049206283
223	0x3da4b98f	0.08043205
224	0x3df6a4d7	0.120431595
225	0x3d936f78	0.07198995
226	0xbd0edb3e	-0.034877054
227	0x3dda8ea9	0.106717415
228	0xbc8728db	-0.016498974
229	0xbbecbf24	-0.007224934
230	0x3db2fcee	0.08739649
231	0x3d10bcc3	0.035336267
232	0x3c377bfc	0.011198994
233	0x3d9b23c3	0.075751804
234	0xbde36752	-0.11103691
235	0xbd4684ee	-0.048466615
236	0xbd97f3b6	-0.07419531
237	0x3d56757c	0.052358136
238	0x3dc10025	0.09423856
239	0x3d23694c	0.03989534
240	0x3d33e0e6	0.04391565
241	0xbdf53aed	-0.1197413
242	0xbcf2d392	-0.0296419
243	0xbdc85865	-0.09782485
244	0x3ce1bf26	0.027556967
245	0xbd677c87	-0.056515243
246	0xbd9ba32a	-0.075994805
247	0x3dd79967	0.10527306
248	0x3cfeed41	0.03111899
249	0x3c6433fb	0.013928409
250	0xbd0f8912	-0.03504283
251	0xbdc00f96	-0.09377973
252	0x3df1399c	0.11778566
253	0xbdb4479f	-0.08802723
254	0x3dc7db49	0.09758622
255	0x3ca4b511	0.02010587

bias f4 [512]
0	0xbd35ecef	-0.04441541
1	0xbdaba1d6	-0.08380477
2	0x3d4647be	0.048408262
3	0xbe1ca241	-0.1529627
4	0xbcd69098	-0.026191995
5	0x3d1e5964	0.03865947
6	0xbe320adf	-0.1738696
7	0xbd226769	-0.0396494
8	0x3bef2e5b	0.007299227
9	0xbd12b989	-0.03582147
10	0xbc9447ea	-0.018100698
11	0xbda31c94	-0.07964435
12	0xbdfaae41	-0.122402675
13	0x3cbf8c12	0.02338222
14	0xbde51979	-0.11186499
15	0xbdc7afd8	-0.097503364
16	0x3c331bf0	0.010931954
17	0xbc08492f	-0.00831823
18	0xbaed22d2	-0.0018092042
19	0x3d7dbcd0	0.061947644
20	0xbdaf6a08	-0.08565146
21	0xbd534b74	-0.05158563
22	0x3d55a503	0.05215932
23	0xbdef0ee4	-0.11672762
24	0xbce680ba	-0.028137553
25	0x3d9ee3de	0.07758306
26	0xbd95fbfa	-0.07323451
27	0x3cb4f927	0.022091461
28	0xbd61d2fd	-0.055132855
29	0xbc4e5bfe	-0.012595175
30	0x3de3d7c7	0.11125141
31	0x3d6b04ca	0.057377614
32	0xbdd85cee	-0.105646
33	0x3dd6c53d	0.10486839
34	0xbc862240	-0.016373754
35	0x3cd42817	0.025898023
36	0xbd4d40c3	-0.05011059
37	0xbd801a48	-0.06255013
38	0x3dc76e59	0.09737844
39	0x3d92403c	0.07141158
40	0x3dad5350	0.08463156
41	0xbe1c485d	-0.1526198
42	0xbd8c18c7	-0.068406634
43	0x3d952c45	0.07283834
44	0xbcff0a31	-0.03113279
45	0xbcb60116	-0.022217315
46	0x3cc80117	0.024414582
47	0x3dae4d35	0.0851082
48	0x3dfb3a75	0.12267009
49	0x3dec39f6	0.11534493
50	0x3d8ccb3c	0.068747014
51	0xbd9bb086	-0.076020285
52	0x3d4abacc	0.04949455
53	0xbda555b3	-0.080729865
54	0x3da18420	0.07886529
55	0x3c2ddb35	0.010611345
56	0x3d8bdfc7	0.068297915
57	0xbd894456	-0.06702487
58	0xbbf9a820	-0.007618919
59	0x3e39d3bf	0.18147181
60	0x3d018dec	0.031629488
61	0x3dd2589b	0.102708064
62	0x3dfbbe59	0.12292165
63	0xbc1f830d	-0.009735835
64	0xbcb2c834	-0.02182398
65	0x3bb3fb1a	0.00549258
66	0x3e0202de	0.12696406
67	0x3e1baa16	0.15201601
68	0x3d2ed2e7	0.0426816
69	0xbe221b85	-0.1583081
70	0x3cf039ea	0.02932449
71	0x3d2dcf07	0.042433765
72	0xbde49295	-0.11160771
73	0xbcfe8a1e	-0.031071719
74	0xbcf3d14d	-0.029762888
75	0x3cfccfda	0.03086083
76	0xbd03b3bc	-0.03215383
77	0xbd77bdf9	-0.060483906
78	0x3df39e0e	0.11895381
79	0x3d0be4e3	0.03415383
80	0x3d8c6db6	0.06856863
81	0xbcc14d00	-0.023596287
82	0xbe0f08ef	-0.13968252
83	0x3cd29bc9	0.02570905
84	0xbdca7f8e	-0.098876104
85	0xbd5750c1	-0.052567247
86	0xbcee00ac	-0.029053055
87	0x3d9b99f2	0.07597722
88	0x3da46c78	0.08028501
89	0xbb41e631	-0.0029586668
90	0xbb356bb4	-0.0027682604
91	0x3db6ad2d	0.089197494
92	0x3cf874fd	0.030329222
93	0x3ddacb7e	0.10683344
94	0xbdbd08bf	-0.09230184
95	0x3e0088ca	0.12552181
96	0x3cef59b9	0.029217588
97	0xbd47812a	-0.048707165
98	0xbda51800	-0.08061218
99	0xbd13286b	-0.035927217
100	0xbdb52488	-0.088448584
101	0xbe0e122a	-0.13874117
102	0xbd5afccf	-0.053463753
103	0xbd94d1f9	-0.072666116
104	0x3d032932	0.03202171
105	0xbd885283	-0.06656363
106	0xbc30342b	-0.010754625
107	0x3cf36a0a	0.02971365
108	0x3e293ce8	0.1652714
109	0xbe02a4ef	-0.1275823
110	0xbe188274	-0.14893514
111	0x3d2358ac	0.039879486
112	0xbe353f4b	-0.17699926
113	0xbdcc09c6	-0.09962802
114	0xbe023f07	-0.12719356
115	0xbdc50b90	-0.09621346
116	0xbe14c0f2	-0.14526728
117	0xbcd283f3	-0.025697684
118	0xbcf1500d	-0.029457116
119	0xbc98eda7	-0.018668009
120	0x3cbf9003	0.0233841
121	0x3ce52cf0	0.02797553
122	0xbdb9eef0	-0.09078777
123	0xbdd6e97e	-0.10493754
124	0xbd622fbb	-0.0552213
125	0x3d86a6bf	0.06574773
126	0xbde0eedb	-0.10983058
127	0xbdb0fb59	-0.08641691
128	0xbc00bb4d	-0.007857156
129	0xbd54b08e	-0.05192619
130	0x3cf28065	0.029602239
131	0x3d3f8ecc	0.04676704
132	0xbc3b593e	-0.011434851
133	0xbdbddf35	-0.09271089
134	0xbd629015	-0.05531319
135	0x3d15efee	0.036605768
136	0x3bb1a3cf	0.005421139
137	0x3dfe6d60	0.124232054
138	0xbccbb909	-0.024868505
139	0x3da20127	0.07910376
140	0xbd7425ae	-0.059606247
141	0xbcd4eb98	-0.025991246
142	0xbc81a908	-0.01582767
143	0x3e01c256	0.1267179
144	0xbd912cc4	-0.070886165
145	0xbb8681d6	-0.004104833
146	0xbe00cf33	-0.1257904
147	0xbe0e2029	-0.13879456
148	0xbcfe476d	-0.031039918
149	0xbd2c2021	-0.042022828
150	0xbdbd23f3	-0.092353724
151	0xbdd5b321	-0.10434557
152	0x3dc8730d	0.09787569
153	0xbe20c33e	-0.15699479
154	0xbd922875	-0.07136623
155	0xbd6c3039	-0.057663176
156	0xbda158b1	-0.07878245
157	0x3d91edd8	0.07125443
158	0x3d4a951b	0.049458604
159	0xbc714dfe	-0.014728067
160	0x3d5b5eca	0.053557195
161	0x3d3e17aa	0.046409287
162	0xbdfbf0c2	-0.1230178
163	0x3c77f0af	0.015133067
164	0xbd5740a2	-0.052551873
165	0xbdbd1b5d	-0.09233735
166	0x3dbd7a9f	0.09251904
167	0xbdae3901	-0.085069664
168	0x3d5e5ed0	0.05428964
169	0x3c428c6c	0.0118742995
170	0x3d992c25	0.07479123
171	0xbc19ac17	-0.009379408
172	0xbc15962a	-0.00913004
173	0x3da13f8b	0.07873448
174	0xbb8a6a03	-0.0042240634
175	0x3d8a7aae	0.067616805
176	0xbe138d72	-0.14409426
177	0xbde94916	-0.11390893
178	0xbdb12483	-0.08649542
179	0x3dda9268	0.10672456
180	0xbb5191a0	-0.0031977668
181	0xbcbfc018	-0.023407027
182	0x3e0cb2e9	0.13740124
183	0x3c9624af	0.018328039
184	0xbd9dc260	-0.0770309
185	0x3d6b8133	0.05749626
186	0xbd1d8f33	-0.038466644
187	0x3b880634	0.00415113
188	0xbd38f31c	-0.045153722
189	0xbc6f51f6	-0.014606943
190	0x3a92a4a6	0.0011187985
191	0xbd50ca16	-0.050973974
192	0x3b9444af	0.0045247893
193	0x3c8f3f06	0.017486107
194	0x3d913ebe	0.07092045
195	0x3d0974c6	0.03355863
196	0x3dbfa6b7	0.0935797
197	0xbe1accd7	-0.15117203
198	0x3ca3197b	0.019909611
199	0xbd15d672	-0.036581464
200	0x3de356c9	0.11100537
201	0x3d1ab91b	0.037774187
202	0x3dc85b06	0.09782986
203	0x3c7440ca	0.014908025
204	0xbd7f6336	-0.062350474
205	0x3d839b9b	0.06426164
206	0xbdd4a7db	-0.103835784
207	0x3c3398ea	0.0109617505
208	0x3c9db515	0.019251386
209	0x3db5307c	0.08847138
210	0x3d4ba1e2	0.04971493
211	0xbe28bff3	-0.16479473
212	0xbb553cb4	-0.0032537403
213	0x3d5e1bc0	0.054225683
214	0xbdb8fa98	-0.09032172
215	0xbcfac044	-0.030609258
216	0xbd1355f8	-0.035970658
217	0xbc4c51bc	-0.012470659
218	0x3e1969f7	0.14981829
219	0x3d459e48	0.048246652
220	0xbd1136aa	-0.035452522
221	0xbc5453e9	-0.012959459
222	0x3cc9ecf2	0.024649117
223	0xbc1e3850	-0.009656981
224	0xbd9c2df7	-0.076259546
225	0xbd506e0d	-0.050886203
226	0xbdcb2997	-0.09920042
227	0xbde4ac2f	-0.11165654
228	0xbdc2facb	-0.09520491
229	0xbd45986c	-0.048241064
230	0xbd8b868b	-0.068127714
231	0xbdc6bc82	-0.09703924
232	0x3d482876	0.04886671
233	0x3cd3e21f	0.025864659
234	0xbc2116b3	-0.009832072
235	0x3db60a40	0.08888674
236	0x3d7c0947	0.061532285
237	0x3d6871a1	0.05674899
238	0x3dafef89	0.085906096
239	0x3d60cf72	0.054885335
240	0xbca753da	-0.020425726
241	0xbe16bf1c	-0.1472134
242	0xbd56d0ba	-0.05244515
243	0xbd9f3de5	-0.07775477
244	0xbda07f93	-0.07836833
245	0x3d609e4a	0.054838456
246	0xbcaefb87	-0.021360172
247	0x3dfb7412	0.12277998
248	0x3cc6aced	0.02425238
249	0x3d956bc6	0.07295947
250	0x3c15cd4e	0.009143187
251	0xbd5cb271	-0.053881112
252	0xbe5f4fdb	-0.21807806
253	0xbe17eca5	-0.14836366
254	0x3b9e01de	0.004822
255	0xbca26d48	-0.0198275

weight f4 [256, 512]
0	0xbd528996	-0.051400743
1	0xbc449a74	-0.011999715
2	0x3d307428	0.043079525
3	0x3b99711b	0.0046826727
4	0xbdb5dc48	-0.08879906
5	0xbb71e0da	-0.0036907704
6	0x3c47a43e	0.0121851545
7	0xbdb9db2d	-0.090750076
8	0x3b2cd479	0.002637176
9	0xbdec15bf	-0.11527585
10	0xbbafcb17	-0.0053647864
11	0x3d1e1e89	0.03860334
12	0xbd777da6	-0.060422562
13	0x3d801a4f	0.06255018
14	0xbd516ddc	-0.05113016
15	0x3d6df4b3	0.05809469
16	0x3d8bb0e5	0.06820849
17	0x3d536954	0.05161412
18	0xbdbbf881	-0.09178258
19	0xbb7fe6a9	-0.0039047396
20	0xbca119d1	-0.01966563
21	0x3c53fb7a	0.012938375
22	0xbd805d9a	-0.06267853
23	0x3bcac087	0.006187502
24	0x3dc7947b	0.09745117
25	0x3b7f0c89	0.0038917384
26	0x3c393a36	0.0113053825
27	0x3ca7ea57	0.020497484
28	0xbc90ec40	-0.017690778
29	0xbcbae454	-0.022813953
30	0x3c127abd	0.008940396
31	0xbcd514db	-0.026010921
32	0x3d38581f	0.045005914
33	0xbd825c9c	-0.0636532
34	0x3c86f15a	0.016472507
35	0xbd3f6020	-0.04672253
36	0xbcd50d5a	-0.026007343
37	0xbd18ec8b	-0.03733496
38	0xbd8d1d37	-0.06890338
39	0x3cbeb13b	0.02327787
40	0xbe00316a	-0.1251885
41	0x3d62ee6b	0.055403154
42	0x3d89059c	0.06690523
43	0x3e0d5f92	0.13805988
44	0x3bbf9476	0.0058465553
45	0xbd5d72c9	-0.054064546
46	0xbd9f92e1	-0.07791687
47	0x3d832aa9	0.06404621
48	0x3dd736e9	0.1050852
49	0xbd0386dd	-0.032111038
50	0x3c865472	0.016397689
51	0x3d25ccf6	0.04047867
52	0x3c868ba8	0.016424015
53	0xbd939682	-0.072064415
54	0xbcbda330	-0.023149103
55	0xbc473d26	-0.012160575
56	0xbdb31605	-0.08744434
57	0x3b8bad80	0.004262626
58	0x3d3c4677	0.045965638
59	0xba1c31bf	-0.00059583405
60	0x3a844f39	0.0010094411
61	0x3db44150	0.0880152
62	0xbe1d1921	-0.15341617
63	0x39d0fa3a	0.00039859285
64	0x3cef076e	0.029178347
65	0x3d6411e7	0.055681136
66	0x3dcc8650	0.099865556
67	0xbd775125	-0.06038012
68	0xbba88dd8	-0.005143862
69	0xbd8bb04e	-0.06820737
70	0x3cb5eeeb	0.022208652
71	0xbd5c7144	-0.053818956
72	0x3bf4fe82	0.0074766288
73	0x3becbc34	0.007224584
74	0xbcbb4797	-0.022861285
75	0xbd539308	-0.05165389
76	0xbc7b74b2	-0.015347647
77	0x3c162450	0.009163931
78	0xbd1a2b2b	-0.037638824
79	0x3dbce41d	0.09223197
80	0xbd80b396	-0.06284253
81	0x3c953248	0.018212453
82	0x3d09a235	0.03360196
83	0x3ad5f91d	0.0016324852
84	0x3d99cb8c	0.075095266
85	0xbd91eb35	-0.0712494
86	0x3b99f4eb	0.004698386
87	0x3d2ad83f	0.041710135
88	0xbd548731	-0.05188674
89	0x3c271976	0.010198941
90	0xbca0326c	-0.019555293
91	0xbd9797ed	-0.074020244
92	0xbce15188	-0.027504697
93	0x3d9ea524	0.07746342
94	0xbca8ed12	-0.020620856
95	0x3c1558b8	0.0091153905
96	0x3dd2e091	0.10296739
97	0xbca775a0	-0.02044183
98	0xbd27687e	-0.040871136
99	0xbd2b7033	-0.04185505
100	0x3ce52ff6	0.027976971
101	0x3d15727d	0.036486138
102	0xb8a8be06	-8.046259e-05
103	0x3c1aa088	0.009437688
104	0xbb637db4	-0.0034712376
105	0x3c27584a	0.010213921
106	0x3d7a0990	0.061044276
107	0xbc9f98a0	-0.019481957
108	0xbbb11e7e	-0.0054052463
109	0x3ba677aa	0.005080183
110	0xbba67756	-0.005080144
111	0xbda4d929	-0.080492325
112	0xbc9f2f52	-0.019431744
113	0x3cf23458	0.029565975
114	0xbc78f335	-0.015194704
115	0xbd8566fb	-0.065137826
116	0x3d70c42e	0.05878084
117	0x3db9675d	0.09052918
118	0xbd0a727d	-0.03380059
119	0x3c0767f7	0.008264533
120	0xbc84f6a9	-0.016230898
121	0xbca1ef86	-0.019767534
122	0xbba91162	-0.005159543
123	0xbdc12129	-0.09430153
124	0x3d11cda3	0.0355965
125	0xbcacfd89	-0.021116989
126	0x3d69e0ef	0.05709928
127	0xbc9ffdda	-0.019530226
128	0x3d7b061a	0.061285116
129	0x3c8c0108	0.017090335
130	0xbd89679a	-0.067092136
131	0xbcced86e	-0.025249686
132	0xbcd65d16	-0.026167434
133	0xbd11dfbb	-0.035613757
134	0x3b716cb9	0.0036838485
135	0x3c945ba3	0.018110102
136	0xbd72743c	-0.05919288
137	0x3c2b668f	0.010461464
138	0xbd181fa9	-0.03713957
139	0xbd49bf19	-0.04925451
140	0x3d14611b	0.03622542
141	0x3b0238c9	0.0019870272
142	0x3c488d88	0.012240775
143	0xbd16df16	-0.036833845
144	0x3cfb1d69	0.030653672
145	0xbbb224f5	-0.0054365345
146	0xbdffb51f	-0.12485718
147	0xbd6bf76b	-0.057609003
148	0xbd8e2f79	-0.069426484
149	0xbd042bdb	-0.032268386
150	0x3d35c13b	0.044373732
151	0xbd8a8bc5	-0.0676494
152	0x3ce94076	0.02847312
153	0x3dacd736	0.08439486
154	0x3d580aac	0.052744552
155	0xbd5b7290	-0.053576052
156	0xbdc789a4	-0.0974305
157	0x3d40f205	0.047105808
158	0xbbca5d6b	-0.006175687
159	0x3b3b9781	0.002862424
160	0x3cb81929	0.022472935
161	0xbce55a4b	-0.027997157
162	0xbc31c14a	-0.010849306
163	0x3b9ff194	0.0048810933
164	0x3c70a540	0.014687836
165	0x3ca21dc6	0.019789588
166	0xbda3c10e	-0.07995807
167	0x3dd1041a	0.102058604
168	0x3c75559a	0.014974022
169	0x3d401f92	0.046905108
170	0xbd265599	-0.040608976
171	0xbd46aaea	-0.04850284
172	0x3d0dd685	0.03462841
173	0x3d481808	0.048851043
174	0x3d28b462	0.04118765
175	0x3d6fb6e7	0.05852404
176	0xbd9fca78	-0.0780229
177	0x3c262893	0.01014151
178	0xbb9f6ce5	-0.004865276
179	0x3d9bcdfb	0.07607647
180	0xbd6ccfa5	-0.057815213
181	0xbd0d454d	-0.03448992
182	0x3d136a52	0.035990067
183	0xbc2d0245	-0.010559623
184	0x3d7762e1	0.060397033
185	0xbdda2806	-0.10652165
186	0x3ccbf800	0.024898529
187	0xbb73a379	-0.0037176295
188	0x3d6ad969	0.057336245
189	0x3bdea13c	0.006794123
190	0x3d10cf75	0.035354096
191	0x3d264692	0.040594645
192	0x3d67e425	0.05661406
193	0x3cb474f9	0.022028433
194	0x3d0d1537	0.03444406
195	0xbd23e5d5	-0.040014107
196	0x3ce58be7	0.028020812
197	0x3d11df00	0.03561306
198	0xbc87dd16	-0.016584914
199	0x3d687889	0.056755576
200	0xbcbbc326	-0.022920202
201	0xbd2e07dc	-0.042487964
202	0xbbf8a542	-0.0075880596
203	0x3d8189f3	0.0632514
204	0xba800dc8	-0.0009769732
205	0x3ccd88ca	0.02508964
206	0x3c5f7321	0.013638289
207	0x3dcb0787	0.09913545
208	0x3cbef1c8	0.02330865
209	0xbc74a04f	-0.014930799
210	0x3bb4e948	0.0055209734
211	0xbca44115	-0.020050565
212	0xbcd00175	-0.02539132
213	0xbd86b4f8	-0.06577486
214	0x3cb05a66	0.02152748
215	0x3c76ef71	0.015071736
216	0xbd209a52	-0.03920967
217	0x3d01f458	0.031727165
218	0xbd0be610	-0.03415495
219	0xbcc74759	-0.024326013
220	0xbb04edd9	-0.002028337
221	0x3dbb23b1	0.09137667
222	0xbd85a11c	-0.0652487
223	0x3d5d1e44	0.05398394
224	0x3c14fc4d	0.009093356
225	0xbdfcf2b5	-0.1235098
226	0xbd8d149e	-0.06888698
227	0x3d5059d1	0.050866906
228	0xbbe02f97	-0.0068416107
229	0xbcf94a75	-0.030431012
230	0xbd9ae6e9	-0.07563574
231	0xbd61d75b	-0.05513702
232	0x3bc83207	0.0061094793
233	0xbc03a4ad	-0.008034867
234	0x3d687ded	0.056760717
235	0x3c5d9a5d	0.013525573
236	0x3bb3e1ef	0.00548958
237	0xbbf85161	-0.0075780605
238	0xbda4c18b	-0.08044728
239	0x3b6037ae	0.0034212875
240	0xbc35e0ee	-0.011100991
241	0x3bffd731	0.0078076352
242	0xbd960753	-0.07325616
243	0xbcd230c6	-0.025658023
244	0x3da443c4	0.08020738
245	0xbd47b08a	-0.048752345
246	0xbcf12c2d	-0.02944001
247	0x3d68d0ed	0.056839872
248	0x3c81e9a8	0.015858486
249	0x3d27e7bb	0.04099248
250	0x3cb28d96	0.021796029
251	0x3d01a10e	0.031647734
252	0x3b9e5342	0.0048317024
253	0x3cabebee	0.020986523
254	0xbc3a53e5	-0.011372541
255	0xbc81dec0	-0.015853286

bias f4 [256]
0	0x3cb21d8f	0.02174261
1	0xbc9f42f0	-0.019441098
2	0xbdc1d9ac	-0.09465346
3	0xba21f057	-0.0006177476
4	0xbdb7c0e1	-0.089723356
5	0x3d120535	0.035649497
6	0xbc1671db	-0.009182419
7	0xbc0bdec8	-0.008537002
8	0x3bd7e187	0.0065881643
9	0xbd687566	-0.056752585
10	0xbd26db5b	-0.040736537
11	0xbc443366	-0.011975145
12	0xbd8faa58	-0.07014912
13	0xbd7de551	-0.06198627
14	0xbd465935	-0.04842492
15	0xbb9ad5cf	-0.004725195
16	0xbc63951f	-0.013890534
17	0xbb0189ad	-0.00197659
18	0xbd85ef20	-0.0653975
19	0xbd4c79ee	-0.04992097
20	0xbd6671a8	-0.056260735
21	0xbdd050f9	-0.10171694
22	0x3b29cd69	0.0025909788
23	0xbd10f90a	-0.035393752
24	0xbbfda88b	-0.007741039
25	0xbe08316b	-0.13300101
26	0x3c1547c7	0.009111351
27	0xbd8a577d	-0.06754968
28	0xbd3ee79d	-0.046607602
29	0xbd5adae1	-0.053431395
30	0xbc968690	-0.018374711
31	0xbc73d262	-0.014881702
32	0xbd6b8f3f	-0.057509657
33	0x3db7a698	0.08967322
34	0x3d89d7ec	0.06730637
35	0x3d5225b4	0.051305488
36	0xbd3bb2ed	-0.045824934
37	0xbccbfb6e	-0.024900164
38	0xbd581b7d	-0.05276059
39	0xbd65f25f	-0.056139346
40	0xbd57487d	-0.052559365
41	0xbd5ff807	-0.054679897
42	0x3d36264a	0.04447011
43	0xbdb60925	-0.08888463
44	0xbe0fbe12	-0.1403735
45	0x3d775003	0.06037904
46	0xbde169bf	-0.110064976
47	0xbdd51f5d	-0.10406373
48	0xbca446cb	-0.020053288
49	0x3a897a40	0.0010488704
50	0x3d0439fe	0.03228187
51	0xbd9a5ea3	-0.07537582
52	0xbdd4d903	-0.10392954
53	0x3cdc4822	0.026889864
54	0xbbc1b0cf	-0.00591097
55	0xbd6b8a1f	-0.05750477
56	0xbdda72b9	-0.10666413
57	0xbdfe1995	-0.12407223
58	0xbd42e71d	-0.047583688
59	0xbc4bbec9	-0.012435623
60	0x3cf758ac	0.03019365
61	0xbdb88edc	-0.09011623
62	0x3cf72c82	0.03017259
63	0xbb37b9ce	-0.0028034332
64	0x3cb362e3	0.021897739
65	0xbd3cf430	-0.046131313
66	0xbca2b770	-0.01986286
67	0xbd69073d	-0.05689167
68	0x3cd21844	0.025646336
69	0xbd94752e	-0.07248913
70	0xbc1fe1c5	-0.0097584175
71	0xbd0fc61d	-0.035101045
72	0xbdeb8962	-0.11500813
73	0xbd03d230	-0.032182872
74	0x3cf16fbc	0.029472224
75	0xbc9b23b1	-0.018937917
76	0x3ccb4956	0.024815243
77	0xbcc94620	-0.024569571
78	0xbda14fbd	-0.07876537
79	0x3c1c4c92	0.00953974
80	0xba03ae24	-0.00050232024
81	0xbc8b448a	-0.017000455
82	0xbdf4e5a9	-0.11957867
83	0xbe0374aa	-0.12837473
84	0xbdb5238c	-0.08844671
85	0xbc589a65	-0.013220404
86	0xbd00d122	-0.031449445
87	0xbd3e13fa	-0.04640577
88	0x3dcd5eb8	0.10027832
89	0xbd2e8c22	-0.04261411
90	0x3c6fd438	0.014637999
91	0x3cfd3ed3	0.030913746
92	0xbd3634ae	-0.044483833
93	0xbd85ac93	-0.065270565
94	0xbd40a99b	-0.04703675
95	0xbcb8fd8b	-0.022581836
96	0xbd16b692	-0.036795206
97	0xbda428f5	-0.080156244
98	0xbd687ed4	-0.056761578
99	0xbe08eee5	-0.13372381
100	0xbcd68983	-0.026188618
101	0x3c366628	0.011132754
102	0xbdc26872	-0.094925776
103	0xbd32d2c7	-0.043658044
104	0xbd91e9c6	-0.07124667
105	0xbc146529	-0.009057322
106	0x3d240974	0.040048078
107	0xbd3de42f	-0.04636019
108	0xbe23ceb5	-0.15996821
109	0xbd9eb349	-0.0774904
110	0x3cf9c97c	0.030491583
111	0xbb0f3b65	-0.002185547
112	0x399cb54f	0.00029889724
113	0xbca65037	-0.020301921
114	0x3c1b9791	0.0094965855
115	0x3c13dd0e	0.0090248715
116	0xbd006319	-0.031344507
117	0xbd5bfb08	-0.0537062
118	0x3d362c40	0.044475794
119	0x3c01c9ba	0.0079216305
120	0x3cb0e791	0.021594794
121	0x3bc9fe38	0.0061643384
122	0xbda8e1d4	-0.08246198
123	0xbb954a08	-0.0045559444
124	0xbde144ba	-0.10999437
125	0xbd7929d8	-0.06083092
126	0x3d81a5be	0.06330441
127	0xbdb105e9	-0.086437054
128	0xbd8e541f	-0.069496386
129	0x3c98a902	0.018635277
130	0xbe281071	-0.16412522
131	0xbd893943	-0.06700375
132	0xbdeedcbc	-0.116631955
133	0x3c059ce6	0.008155083
134	0xbda2e9ed	-0.07954774
135	0x3d2f3fc3	0.042785417
136	0xbd630ca4	-0.055431977
137	0xba66328f	-0.00087813375
138	0x3d79bd40	0.0609715
139	0x3ca795fa	0.020457257
140	0xbc643726	-0.013929164
141	0xbdc6907a	-0.096955255
142	0xbdbb19e4	-0.091357976
143	0x3b94c57c	0.0045401435
144	0xbdc3befd	-0.095579125
145	0xbd398080	-0.045288563
146	0xbd8040fd	-0.062623955
147	0xbe0af348	-0.13569367
148	0xbd65ccc0	-0.056103468
149	0xbdd41f89	-0.10357577
150	0xbc0112c8	-0.007878013
151	0xbadecece	-0.0016998888
152	0xbd4f5c6e	-0.050625257
153	0xbd784e09	-0.060621295
154	0xbdbbae3a	-0.091640905
155	0x3d3c4804	0.045967117
156	0xbd995889	-0.0748759
157	0x3d9c3991	0.076281674
158	0x3d0f9a87	0.035059478
159	0x3bf7d9a0	0.0075637847
160	0xbd53b2f1	-0.051684324
161	0xbdacab47	-0.08431106
162	0xbe12e7d2	-0.14346245
163	0xbd51472e	-0.051093273
164	0xbcbae1ea	-0.022812802
165	0xbd1d654d	-0.038426686
166	0x3ce4db6a	0.027936656
167	0xbc267342	-0.010159316
168	0xbda65714	-0.081220776
169	0xbd9fd820	-0.078048944
170	0xbe330cc1	-0.17485334
171	0x3ca827bb	0.020526757
172	0xbd9fb8fa	-0.07798953
173	0x3b66e010	0.0035228767
174	0xbdd514f4	-0.10404387
175	0xbc2d8703	-0.010591271
176	0xbdd9a475	-0.10627071
177	0x3cde7b58	0.027158424
178	0xbc98ef5e	-0.018668827
179	0xbdd47ea7	-0.103757195
180	0xbc2035a2	-0.009778412
181	0xbd44a424	-0.0480081
182	0xbd5bc0ee	-0.05365079
183	0xbcbe2db2	-0.023215149
184	0xbd15dbd0	-0.036586583
185	0xbda9924c	-0.08279857
186	0xbd29bd43	-0.04144026
187	0x3bc8db65	0.0061296695
188	0xbc90c13e	-0.01767027
189	0x3cdc9917	0.026928468
190	0xbdce1e02	-0.10064317
191	0x3c7685a2	0.015046509
192	0x3ca2ba14	0.01986412
193	0xbd761656	-0.060079895
194	0xbdb5d989	-0.08879382
195	0xbd2fad05	-0.042889614
196	0x3c84ee65	0.016226957
197	0xbd83fa6a	-0.06444247
198	0x3d1c1612	0.038106985
199	0xbd970cbe	-0.07375477
200	0xbd5548d3	-0.052071404
201	0xbd5312be	-0.051531546
202	0x390698d5	0.0001283617
203	0xbc65d22d	-0.014027161
204	0x3bc32937	0.005955841
205	0xbd5fac51	-0.054607693
206	0xbe2d0753	-0.16897325
207	0xbcbc1c33	-0.022962665
208	0xbcebf671	-0.028804036
209	0xbd707858	-0.05870852
210	0xbd7bd085	-0.061478157
211	0xbe1d2183	-0.15344815
212	0x3d23ccbd	0.039990176
213	0xbe257b87	-0.16160403
214	0xbdecddea	-0.11565764
215	0xbdfb602c	-0.12274203
216	0xbdabe71c	-0.0839369
217	0xbd51bc66	-0.05120506
218	0x3cdc4b1f	0.02689129
219	0x3c3635fd	0.01112127
220	0xbd3357c4	-0.04378487
221	0xbccc0e47	-0.024909152
222	0x3d672a67	0.056436922
223	0xbdf23501	-0.11826516
224	0x3c5e2cff	0.013560533
225	0xbd25b3eb	-0.040454786
226	0x3b5cb136	0.0033674962
227	0xbdc1cc6e	-0.0946282
228	0x3d2ff9f9	0.042963002
229	0xbcd1aa49	-0.025593894
230	0x3b2dbb90	0.00265095
231	0xbbf42e52	-0.007451811
232	0xb898813d	-7.271997e-05
233	0xbc0ac51d	-0.008469847
234	0xbd862e1c	-0.065517634
235	0xbd850689	-0.06495387
236	0xbd061bcb	-0.03274135
237	0x3c99dfc9	0.018783467
238	0x3cc9ce87	0.024634613
239	0xbddd0129	-0.10791237
240	0xbc8a6e15	-0.016898194
241	0x3c711561	0.01471457
242	0xbd21976e	-0.039451055
243	0xbd6345c7	-0.055486467
244	0xbdd8beab	-0.10583242
245	0xbe0a1217	-0.13483463
246	0xbc5b5489	-0.013386854
247	0xbd7a3e17	-0.06109437
248	0xbcb3a95c	-0.021931343
249	0xbd6a4f3c	-0.05720447
250	0xbab0ed27	-0.0013498411
251	0x3d4b6364	0.049655333
252	0x3db6b6c9	0.08921582
253	0xbdb4065e	-0.08790277
254	0xbd87a429	-0.06623108
255	0xbdeaff2b	-0.11474451

weight f4 [128, 256]
0	0xbd3eab72	-0.04655022
1	0x3da41a15	0.08012787
2	0xbd285277	-0.04109427
3	0x3de778e7	0.11302357
4	0xbd9b3375	-0.07578174
5	0xbdaf97a7	-0.08573847
6	0x3d3662da	0.044527866
7	0x3d310f0a	0.043227233
8	0x3df9b9ee	0.121936664
9	0xbd9407a8	-0.07228023
10	0xbcfaa3f5	-0.030595759
11	0xbd6091c1	-0.0548265
12	0xba3e97e6	-0.00072705594
13	0x3b861b7c	0.004092632
14	0x3b19824d	0.0023423613
15	0x3d21e2e2	0.039523013
16	0xbc15217d	-0.0091022225
17	0xbc869219	-0.016427087
18	0xbd0303b6	-0.03198596
19	0xbd002758	-0.03128752
20	0x3da0ee72	0.0785798
21	0xbc894a6d	-0.016759122
22	0xbbf05ef4	-0.007335538
23	0xbd6da7f8	-0.058021516
24	0x3d09df2b	0.033660095
25	0x3d2a3b2e	0.041560344
26	0x3de6e7d0	0.112746835
27	0xbcee96b6	-0.029124599
28	0x3bcfdc52	0.006343403
29	0xbd6a770a	-0.05724243
30	0xbd2f1aa6	-0.042750023
31	0x3ca5e409	0.020250337
32	0x3dd6887e	0.104752526
33	0x3ca5436e	0.020173755
34	0x3d83c919	0.06434841
35	0xbc8fd59f	-0.017557917
36	0xb8797722	-5.9477177e-05
37	0xbd5cf386	-0.05394318
38	0xbc08d04d	-0.008350444
39	0x3d3dff7f	0.04638624
40	0xbdc338aa	-0.09532292
41	0x3c86facc	0.016477011
42	0xbd4648ad	-0.048409153
43	0xbd5bd6e7	-0.053671744
44	0x3cfe98aa	0.031078655
45	0x3bcdb6ba	0.006277886
46	0xba5a0b88	-0.00083177583
47	0x3d7c1bcb	0.061549943
48	0x3bd17df8	0.0063931905
49	0x3d0b0916	0.033944212
50	0x3d270f66	0.04078617
51	0x3d54bb4b	0.05193643
52	0x3d292014	0.041290358
53	0x3d30c00e	0.043151908
54	0x3d0d1b7d	0.034450043
55	0xbcc5997b	-0.024121037
56	0xbd8698b8	-0.065720975
57	0xbd8bd45b	-0.06827613
58	0xbd9614c0	-0.073281765
59	0x3d82ec30	0.063927054
60	0xbc882550	-0.016619354
61	0xbbb01993	-0.0053741424
62	0x3de3e202	0.11127092
63	0xbd994807	-0.07484441
64	0xbb6b02c5	-0.0035859805
65	0xbd0b389e	-0.03398954
66	0xbd9e7552	-0.07737221
67	0xbb3ad1d9	-0.0028506427
68	0xbd457606	-0.04820826
69	0xbd438743	-0.047736418
70	0xbd3360ff	-0.043793675
71	0x3d6340b5	0.05548163
72	0x3da4b080	0.08041477
73	0x3c4eddb8	0.012626104
74	0xbd390db9	-0.045179103
75	0x3d830067	0.06396561
76	0xbd2a64f8	-0.041600198
77	0xbd9bdbce	-0.07610284
78	0xbc2a5207	-0.010395533
79	0xbda472c8	-0.08029705
80	0x3d1ddf85	0.038543243
81	0xbca32010	-0.01991275
82	0x3d54fa33	0.05199642
83	0x3d6f3dc8	0.05840853
84	0xbd1936fb	-0.03740595
85	0xbba06d50	-0.0048958436
86	0x3d2ecb0e	0.042674117
87	0x3e08ecf6	0.13371643
88	0x3cb4ad18	0.022055194
89	0xbc94a652	-0.018145714
90	0x3c2c236f	0.010506495
91	0x3c31fb46	0.010863131
92	0x3d60517b	0.054765206
93	0xbd7102d9	-0.058840606
94	0xbdfe6969	-0.12422449
95	0xbc3c4950	-0.011492088
96	0x3d9cd8ca	0.07658537
97	0xbd830c40	-0.06398821
98	0x3dd7d301	0.10538293
99	0xbd0f6985	-0.03501274
100	0xbdd6d2ca	-0.104894236
101	0xbd418b4b	-0.04725198
102	0xbd9bf32d	-0.076147415
103	0xbb8ee76c	-0.0043610837
104	0xbcfe5426	-0.031045984
105	0x3d5011d6	0.05079826
106	0xbcdc39b5	-0.026882986
107	0x3d849fd1	0.06475795
108	0x3de815a4	0.113322526
109	0x3c0e47fa	0.008684153
110	0x3cc2b33b	0.023767104
111	0x3d41d6d8	0.04732403
112	0xbda878bd	-0.08226154
113	0xbd176515	-0.036961634
114	0xbd583db6	-0.052793227
115	0xbd216b36	-0.039408885
116	0x3d3c54f9	0.045979474
117	0x3d21fb71	0.039546434
118	0xbdf60fa4	-0.12014702
119	0xbcb38ec7	-0.021918667
120	0xbca66c14	-0.020315208
121	0x3da99792	0.08280863
122	0x3cc14732	0.023593519
123	0xbc8a1fea	-0.016860921
124	0xbd53ed30	-0.05173987
125	0x3c1f6e0d	0.009730828
126	0xbbec26ab	-0.007206758
127	0xbd50c6b7	-0.05097076
128	0xbcb3bcda	-0.021940637
129	0x3d472d83	0.048627388
130	0x3dd25f8b	0.102721296
131	0xbc80c698	-0.015719697
132	0x39875cf5	0.00025818465
133	0xbc8b8a09	-0.017033594
134	0x3cc8273a	0.024432767
135	0xbca4a92a	-0.020100195
136	0xbd60a62f	-0.054845985
137	0xbd5e73a1	-0.05430949
138	0x3cc8d6d4	0.0245165
139	0xbda5e8b2	-0.08101024
140	0x3a05ebd4	0.00051086885
141	0x3cadfd1f	0.021238862
142	0xbd3626db	-0.04447065
143	0x3b55e4ab	0.0032637517
144	0xbd1aec27	-0.03782287
145	0x3cdd954b	0.027048727
146	0xbc7e33be	-0.015515266
147	0xbbfd6d63	-0.007733987
148	0xbb96f725	-0.0046070986
149	0xbda62da6	-0.081141755
150	0xbd0ca234	-0.034334376
151	0xbd48dde9	-0.049039755
152	0x3d3e137c	0.0464053
153	0x3da81a8c	0.082081884
154	0x3d7e63f6	0.06210705
155	0xbc4b5c60	-0.012412161
156	0x3ba0265b	0.004887385
157	0xbcc07e8a	-0.023497839
158	0x3e069535	0.13142855
159	0x3da9222a	0.082584694
160	0xbd8c7aac	-0.06859335
161	0xbcac63c4	-0.021043666
162	0x3dc1c424	0.09461239
163	0x3d273b0c	0.040827796
164	0x3ca40cc6	0.020025622
165	0x3d107d97	0.03527602
166	0xbca4128a	-0.020028371
167	0xbc40bd25	-0.011763846
168	0xbb7a0bef	-0.0038154086
169	0xbcb79a77	-0.022412522
170	0x3d15d6fb	0.036581974
171	0xbd105929	-0.03524128
172	0xbdf6fb55	-0.120596565
173	0x3ca8b8a9	0.020595865
174	0x3ca4728c	0.020074151
175	0xbd564ca8	-0.0523192
176	0xbda0ac95	-0.078454174
177	0xbb0be4af	-0.0021346023
178	0xbd8167c2	-0.06318618
179	0x3dac7dd2	0.08422436
180	0x3c813db5	0.015776495
181	0xbd897148	-0.0671106
182	0xbd7305b2	-0.059331603
183	0x3c0cc565	0.008591984
184	0x3cd5eca3	0.026113814
185	0xbd4ed006	-0.050491355
186	0x3d1d9831	0.03847522
187	0xbd35b82c	-0.044365093
188	0xbdc12b91	-0.09432138
189	0xbd67e5cd	-0.05661564
190	0x3bc818da	0.006106478
191	0xbd3655b0	-0.04451531
192	0x3d2f049f	0.042729016
193	0xbd26fa0b	-0.040765803
194	0xbd11c0eb	-0.03558437
195	0xbd5de88e	-0.05417686
196	0xbd877f4b	-0.06616076
197	0xbd1ad894	-0.0378042
198	0x3d38ce8c	0.045118853
199	0xbdc5a62b	-0.09650835
200	0x3df8b22f	0.12143361
201	0xbc6f0968	-0.014589645
202	0xbd893b84	-0.06700805
203	0x3c6aba20	0.014326602
204	0x3c1daa00	0.009623051
205	0xbd72e17a	-0.059297062
206	0x3dbe6519	0.092966266
207	0xbc1a5372	-0.009419309
208	0x3c0492e6	0.008091664
209	0x3c22038f	0.009888544
210	0xbc9921e4	-0.018692918
211	0x3c2398ab	0.009985129
212	0xbd7a2d5e	-0.06107842
213	0x3bc40d61	0.00598304
214	0x3d11dd3e	0.035611384
215	0x3c54693e	0.012964545
216	0xbd9e5972	-0.07731904
217	0x3dcd65ca	0.1002918
218	0xbc44a90c	-0.012003195
219	0xbcbd1bc1	-0.023084523
220	0xbd14038d	-0.0361362
221	0xbd2f0e8b	-0.04273848
222	0x3cbaaa59	0.022786306
223	0x3c95a3f9	0.018266665
224	0x3d9115e6	0.07084255
225	0x3cc830c4	0.024437316
226	0xbac37eca	-0.0014915105
227	0x3df8819b	0.12134095
228	0xbd6f4076	-0.058411084
229	0xbc81bf2b	-0.015838226
230	0x3c282871	0.010263548
231	0x3daff7af	0.08592164
232	0xbcf9ea8e	-0.030507352
233	0xbd8907be	-0.0669093
234	0x3d33fed1	0.043944184
235	0x3d8e1b57	0.069388084
236	0xbd386f8b	-0.04502825
237	0xbd27904b	-0.040909093
238	0x3d6a8855	0.057258923
239	0xbd8ca752	-0.06867851
240	0xbd35c546	-0.044377588
241	0xbd858dfc	-0.06521222
242	0x3d35ad8d	0.044354964
243	0x3d927947	0.07152038
244	0xbcade875	-0.021229008
245	0x3d712bdc	0.05887972
246	0xbd235700	-0.03987789
247	0x3d761b85	0.06008484
248	0xbda9ab2d	-0.08284602
249	0x3ca8a4a9	0.020586329
250	0xbd9c6db9	-0.076381154
251	0x3d3c914d	0.046037007
252	0xbd7db65d	-0.061941493
253	0xbd08fc45	-0.033443708
254	0xbe01a466	-0.1266037
255	0xbc6ad7b6	-0.014333656

bias f4 [128]
0	0xbce8d8a4	-0.028423615
1	0xbd976219	-0.073917575
2	0xbd8444ea	-0.06458457
3	0xbdc2f6c9	-0.09519727
4	0xbdc7dc18	-0.097587764
5	0xbe0b5b52	-0.13609055
6	0x3d96be88	0.0736056
7	0xbe0dfcaf	-0.13865922
8	0xbd88f77d	-0.0668783
9	0xbe214009	-0.15747084
10	0xbc901f4a	-0.017593045
11	0xbce73cdd	-0.028227264
12	0xbd8e825a	-0.06958456
13	0xbde4ee07	-0.111782126
14	0xbe0dba2b	-0.13840549
15	0xbdcee920	-0.10103059
16	0x3c7c3b97	0.015395067
17	0xbda4be81	-0.08044148
18	0x3cce8790	0.025211126
19	0xbd915a5d	-0.070973136
20	0x3d6567f4	0.05600734
21	0x3e0ef5b2	0.13960913
22	0x3d17493f	0.036935087
23	0xbdcedcbc	-0.101006955
24	0x3c7e7fa0	0.015533358
25	0xbd41b5d5	-0.04729255
26	0xbbf6a161	-0.007526562
27	0x3dc00191	0.09375299
28	0xbd2edb05	-0.042689342
29	0x3ca6eb80	0.020375967
30	0x3ca6dfa9	0.020370321
31	0xbe3cef78	-0.18450725
32	0xbd8093cc	-0.0627819
33	0xbc4eb1ad	-0.012615603
34	0xbd99d833	-0.0751194
35	0xbdc94438	-0.09827465
36	0x3da791e5	0.08182124
37	0xbdb7d42f	-0.08976018
38	0xbc2a7b83	-0.010405424
39	0x3dc18f6c	0.09451184
40	0xbd9e4b26	-0.07729177
41	0xbc02ce22	-0.007983716
42	0xbd5cd0f7	-0.053910222
43	0x3d01b95b	0.03167091
44	0x3d41e5fe	0.04733848
45	0xbcd9daa8	-0.026593521
46	0x3c2552ce	0.010090543
47	0xbd80c000	-0.06286621
48	0xbd900ea8	-0.070340455
49	0xbe1d2f63	-0.15350108
50	0x3d9bd332	0.07608642
51	0x3d3769d3	0.044778656
52	0xbd6bc91e	-0.057564847
53	0xbb19a46d	-0.0023443953
54	0xbdcbea20	-0.09956765
55	0x3d27a45d	0.040928233
56	0x3d6a8b38	0.057261676
57	0xbc982c44	-0.018575795
58	0xbbe2c87b	-0.006920872
59	0x3d9aae26	0.075527474
60	0xbd1f0867	-0.038826372
61	0xbc8fd4bc	-0.017557494
62	0xbdbd3e39	-0.09240384
63	0xbcd14225	-0.025544235
64	0xbe0c12c4	-0.13679034
65	0x3ce1a9f5	0.027546862
66	0xbe11d484	-0.14241225
67	0xbd94825e	-0.07251428
68	0x3d68b864	0.056816474
69	0xbe19bc9c	-0.15013355
70	0xbcf1715e	-0.029473003
71	0xbd8e2fdf	-0.069427244
72	0xbd1b5633	-0.037924003
73	0x3c8b9ff3	0.017044043
74	0xbd3a4d68	-0.045483977
75	0x3be51cc5	0.006991955
76	0xbd9b3cf7	-0.075799875
77	0x3dc61d1d	0.09673522
78	0xbc9b3d90	-0.018950254
79	0xbd875a62	-0.06609036
80	0xbd58a793	-0.052894186
81	0xbd40a056	-0.04702791
82	0xbcd1d14c	-0.025612496
83	0x3d7279a6	0.059198044
84	0xbcabfe76	-0.02099536
85	0xbd2e1a42	-0.04250551
86	0xbd801623	-0.06254222
87	0x3d1e0e77	0.038588013
88	0xbdac6d95	-0.084193386
89	0xbd018866	-0.03162422
90	0xbd80fcdc	-0.06298229
91	0xbd83da84	-0.06438163
92	0xbe1b822b	-0.15186374
93	0xbdd68d6b	-0.10476192
94	0x3d673b9c	0.056453332
95	0x3d40dd21	0.047085885
96	0xbda08957	-0.078386955
97	0x3aacbac9	0.0013178225
98	0xbdcd2fa2	-0.10018851
99	0x3cb8b16a	0.022545535
100	0xbb8fcf59	-0.0043887314
101	0xbd3b23db	-0.04568849
102	0xbd25517a	-0.040360905
103	0xbdcc9091	-0.09988511
104	0xbdfd9cd2	-0.12383427
105	0xbd5a8ee5	-0.05335893
106	0x3d6cbc1f	0.057796594
107	0x3d8e9a06	0.069629714
108	0xbd1fcea6	-0.039015435
109	0xbc303447	-0.010754651
110	0x3d5cdfa5	0.05392422
111	0x3d1e8573	0.038701486
112	0xbdc9ce8c	-0.09853849
113	0xbe0da585	-0.13832672
114	0x3d19774c	0.037467286
115	0x3d2fc6fb	0.042914372
116	0xbd48a1cc	-0.048982427
117	0xbd8ce322	-0.0687926
118	0xbd81b5bc	-0.06333491
119	0x3d8fc550	0.07020056
120	0x3cbf7fe0	0.023376405
121	0x3d8a2c93	0.06746783
122	0xbde02bbb	-0.10945841
123	0xbd4005f5	-0.04688068
124	0x3cca8227	0.024720265
125	0xbc135fc0	-0.008994997
126	0xbc0db783	-0.00864971
127	0xbc1a295f	-0.009409278

weight f4 [27, 128]
0	0xbc962b86	-0.0183313
1	0xbe00797a	-0.1254634
2	0x3d9ddae0	0.07707763
3	0xbda277e4	-0.079330236
4	0x3d1ed2e6	0.038775347
5	0xbd90fce5	-0.07079486
6	0x3d7e58ef	0.062096532
7	0xbdcc74b2	-0.09983195
8	0xbd93e7b6	-0.0722193
9	0xbc583f1c	-0.01319864
10	0xbd4312b6	-0.047625266
11	0x3c30332e	0.01075439
12	0xbd2b9495	-0.041889746
13	0xbca04922	-0.019566122
14	0x3da7dfe4	0.081970006
15	0x3c20d133	0.009815502
16	0x3cc9aae6	0.024617624
17	0x3c5e386e	0.013563259
18	0x3d055f8c	0.032561824
19	0xbbdf68ff	-0.0068179364
20	0x3c0e1a37	0.008673242
21	0xbaee2866	-0.0018169999
22	0xbd942a43	-0.07234623
23	0x3d420193	0.047364783
24	0xbcf7eb9b	-0.030263713
25	0xbc80e868	-0.01573582
26	0xbd069414	-0.032856062
27	0x3cc41b56	0.023938816
28	0xbca1cb78	-0.019750342
29	0xbd02d15c	-0.031937942
30	0x3d4bc47b	0.049747925
31	0x3d411f50	0.047149003
32	0xbbc40255	-0.0059817233
33	0x3cdabbdb	0.026700905
34	0xbb641c03	-0.0034806735
35	0x37c434ff	2.3389699e-05
36	0x3d6552c9	0.055987153
37	0x3d88440e	0.066536054
38	0xbd558b1d	-0.052134622
39	0x3d8fd18c	0.0702239
40	0x3cfc052c	0.030764185
41	0xbd8968e8	-0.067094624
42	0xbd26aa5c	-0.04068981
43	0x3e023173	0.12714176
44	0x3dbc9e00	0.092098236
45	0xbc95bd70	-0.018278807
46	0x3d5de256	0.05417093
47	0xbde7a39d	-0.11310504
48	0xbd464a5b	-0.048410755
49	0x3d16eddf	0.036847945
50	0x3b62f0e6	0.003462845
51	0xbc2b3baf	-0.010451241
52	0x3da10be1	0.07863594
53	0xbd38093a	-0.044930674
54	0xbce62ea2	-0.028098408
55	0x3cf1cef8	0.029517636
56	0xbc05bece	-0.008163167
57	0xbce667cd	-0.028125668
58	0x3dbee09f	0.09320187
59	0x3b972464	0.0046124924
60	0x3d372164	0.04470958
61	0x3bfcfb13	0.00772036
62	0x3db0d13a	0.08633657
63	0x3dbd459d	0.09241793
64	0x3aaf94b1	0.0013395754
65	0x3c873495	0.016504565
66	0x3dbcadad	0.092128135
67	0xbca93658	-0.020655796
68	0xbd252a45	-0.040323514
69	0xbca49e03	-0.020094877
70	0x3d45d8f1	0.048302595
71	0xbd393de5	-0.045225043
72	0xbbc4be5a	-0.006004137
73	0x3d405d9a	0.046964265
74	0xbce5d832	-0.028057192
75	0xbd16a884	-0.036781803
76	0xbd884707	-0.066541724
77	0xbce832ef	-0.0283446
78	0xbd9557d3	-0.07292142
79	0xbd0397cc	-0.032127187
80	0xba4c775a	-0.0007799767
81	0xbbb6d0ae	-0.005579076
82	0xbd3c5664	-0.045980826
83	0x3da8151d	0.08207152
84	0xbd245728	-0.04012218
85	0xbd239879	-0.03994033
86	0x3d7fccb3	0.062451076
87	0x3d19db7d	0.037562836
88	0xbd1f22f8	-0.03885171
89	0xbc693980	-0.0142349005
90	0xb9a4d702	-0.0003144071
91	0xbbb83b43	-0.005622299
92	0xbbdcbd55	-0.0067364373
93	0xbbd9ee3d	-0.0066507147
94	0xbcce07b1	-0.025150152
95	0x3ccf7f6b	0.025329312
96	0xbcb99c98	-0.022657678
97	0xbd90d8fb	-0.07072636
98	0x3d646d31	0.055768196
99	0x3e037a90	0.12839723
100	0xbdd99ce5	-0.106256284
101	0x3c81aa0b	0.015828153
102	0xb929efc1	-0.00016206411
103	0xbde5a4d9	-0.11213083
104	0xbb03a315	-0.0020086218
105	0x3c51ecf2	0.01281284
106	0xbd1c19d1	-0.038110558
107	0x3d9b0eff	0.0757122
108	0xbc15473a	-0.00911122
109	0xbca6373d	-0.020290012
110	0xbce2b310	-0.027673274
111	0x3cc662c9	0.024217026
112	0xbdc109aa	-0.094256714
113	0x3d6e3b7f	0.05816221
114	0x3d449cd3	0.04800112
115	0x3d7aea0b	0.061258357
116	0x3cad08d6	0.021122377
117	0xbd8526f0	-0.06501567
118	0x3cf47a0b	0.02984335
119	0x3be51d8f	0.006992049
120	0x3de31e25	0.11089734
121	0xbd5a2446	-0.05325725
122	0x3d6d1457	0.057880726
123	0x3d12a2fe	0.035799973
124	0x3d01415d	0.031556476
125	0x3d4e5bde	0.05038058
126	0xbcd1fb7f	-0.025632618
127	0x3c6df9ff	0.014524936
128	0xbceca779	-0.028888451
129	0x3dfef076	0.12448208
130	0xbb3e95e7	-0.0029081048
131	0x3d35651d	0.044285882
132	0x3d9a4532	0.07532729
133	0x3db14b2e	0.086569175
134	0x3bc8f5ec	0.006132832
135	0xbc7e05ca	-0.01550431
136	0xbcde2349	-0.027116435
137	0x3debf0dc	0.1152055
138	0xbd60e3bb	-0.05490468
139	0x3d1faa9b	0.03898106
140	0xbd452c47	-0.04813793
141	0x3cdb863c	0.026797406
142	0x3d6858bd	0.056725252
143	0x3c55ffc3	0.013061467
144	0xbcf6ba6b	-0.030118188
145	0x3da76dc1	0.08175231
146	0x3dd05a13	0.1017343
147	0x3c29367a	0.01032793
148	0x3d65b24e	0.056078248
149	0xbd5b143d	-0.053486098
150	0x3c03a400	0.008034706
151	0xbb40fa33	-0.0029446005
152	0x3e049608	0.12947857
153	0x3d23210d	0.03982644
154	0xbd854aea	-0.06508429
155	0x3bfdc545	0.0077444636
156	0xbcee6eff	-0.029105661
157	0xbc35fd8a	-0.011107812
158	0x3d2ad8ef	0.04171079
159	0x3db9400e	0.090454206
160	0xbd1a7523	-0.037709367
161	0xbcf5abf6	-0.029989224
162	0x3d94b26a	0.07260592
163	0xbd46a9b4	-0.048501685
164	0x3d223417	0.039600458
165	0xbd8d76b2	-0.06907405
166	0xbd32ac26	-0.043621205
167	0x3c40256e	0.011727674
168	0xbbdc4e88	-0.006723229
169	0x3d128793	0.035773825
170	0xbb81432b	-0.0039447746
171	0x3d40ff22	0.047118314
172	0xbd95d99b	-0.073168956
173	0xbdb5b8b9	-0.08873124
174	0x3ca1fd01	0.019773962
175	0xbcfeab9a	-0.031087685
176	0x3d830877	0.06398099
177	0x3def7d79	0.11693854
178	0x3c7fef9e	0.015621094
179	0x3d3d266d	0.046179224
180	0xbd3cc644	-0.04608752
181	0xbcedb426	-0.029016566
182	0x3d9baccc	0.07601318
183	0xbad61bd2	-0.0016335195
184	0x3d9cd1e7	0.07657223
185	0xbe04f382	-0.12983516
186	0xbdb3f308	-0.08786589
187	0xbd5960e5	-0.05307092
188	0xbd46a104	-0.0484934
189	0xbd0409b5	-0.03223582
190	0xbd5339b4	-0.051568702
191	0xbce044c6	-0.027376544
192	0x3d7e202d	0.062042404
193	0x3d37fe0a	0.044920005
194	0x3cd7ac5d	0.026327306
195	0xbded3878	-0.11583036
196	0xbd9c90fa	-0.076448396
197	0xbd9747d3	-0.07386746
198	0xbc8a807f	-0.016906975
199	0xbd82ec77	-0.06392758
200	0xbd0e2676	-0.034704648
201	0x3cb12958	0.02162616
202	0xb9ec6603	-0.00045089432
203	0xbdbf155a	-0.09330244
204	0x3c82ad7e	0.015951868
205	0xbdd6d709	-0.104902335
206	0x3b023b7f	0.0019871888
207	0x3c47cc07	0.01219464
208	0xbc36e9b4	-0.011164118
209	0xbd2c7368	-0.042102247
210	0x3d05c38b	0.032657187
211	0xbdec8e1b	-0.11550542
212	0xbc9944c6	-0.018709552
213	0xbc8c2b8e	-0.017110612
214	0x3d0b6c83	0.03403903
215	0x3d426661	0.047460917
216	0x3c00c041	0.007858337
217	0xbccfa765	-0.025348375
218	0xbdf8ded0	-0.12151873
219	0xbcf23134	-0.029564478
220	0xbca56ce5	-0.020193527
221	0x3b85e1f8	0.0040857755
222	0xbd797cac	-0.060909912
223	0xbd772fb6	-0.060348235
224	0x3da35865	0.07975844
225	0x3ca2d971	0.019879075
226	0xbc6c1eff	-0.014411687
227	0xbb482ec2	-0.0030545448
228	0x3d8e97e2	0.06962563
229	0xbcbd1037	-0.02307902
230	0xbdbcb91e	-0.09214996
231	0x3c0c83a0	0.008576304
232	0xbd7790b9	-0.060440753
233	0x3d76a7bc	0.060218558
234	0xbdae8ad2	-0.085225716
235	0xbd9369cb	-0.07197913
236	0x3d40f722	0.047110684
237	0x3e139a55	0.14414342
238	0x3b71c6d4	0.0036892192
239	0xbc83ef55	-0.016105333
240	0xbcb62dfb	-0.022238722
241	0x3bee4956	0.007271926
242	0x3dc9ddfb	0.098567925
243	0x3c435961	0.011923165
244	0x3aa81e7c	0.0012826468
245	0x3d87baa7	0.06627398
246	0x3c5c2cca	0.013438413
247	0x3d7e34b9	0.062062
248	0xbc9e2cf0	-0.019308537
249	0x3d51ca97	0.051218595
250	0x3cc6e80e	0.024280574
251	0x3ca275af	0.019831507
252	0x3cda5b79	0.026654946
253	0x3e3f587f	0.18686102
254	0x3da2a64f	0.07941877
255	0x3da1b375	0.07895557

bias f4 [27]
0	0x39857857	0.00025457397
1	0xbdc4d49c	-0.096108645
2	0x3bcb2b1c	0.0062002074
3	0x3ca06c13	0.019582784
4	0xbbbbe80b	-0.005734449
5	0x3cf0fb6e	0.029416766
6	0x3df866fb	0.12129017
7	0x3d0905f1	0.03345293
8	0xbc13c191	-0.009018318
9	0xbdae0d7e	-0.08498667
10	0xbdc9bdc4	-0.09850648
11	0xbd93f4ad	-0.072244026
12	0x3d8a0748	0.0673967
13	0xbd5243fb	-0.051334362
14	0x3e0263f7	0.12733446
15	0xbcd8e57e	-0.026476618
16	0xbd6e383c	-0.058159098
17	0xbd546169	-0.05185071
18	0x3c9b9534	0.018992044
19	0x3beaa9fa	0.007161376
20	0x3da436ad	0.08018241
21	0xbd1fa39e	-0.038974397
22	0xbde035c7	-0.10947757
23	0xbd683abd	-0.056696642
24	0xbcb6d73b	-0.022319427
25	0x3c374cbc	0.0111877285
26	0xbd960fae	-0.073272094
